…
   "execution_count": 11,
   "id": "f8155dbe",
   "metadata": {},
   "outputs": [],
   "source": [
    "# Instanciate the model.\n",
    "model = Densenet(in_channel=3, classes=10)"
   ]
  },
  {
   "cell_type": "code",
   "execution_count": 12,
   "id": "06e3353d",
   "metadata": {},
   "outputs": [],
   "source": [
    "# Load the model to CUDA\n",
    "model = model.to(device)"
   ]
  },
  {
   "cell_type": "code",
   "execution_count": 13,
   "id": "cda0369a",
   "metadata": {},
   "outputs": [
    {
     "name": "stdout",
     "output_type": "stream",
     "text": [
      "Densenet(\n",
      "  (conv1): Conv2d(3, 64, kernel_size=(7, 7), stride=(2, 2), padding=(3, 3), bias=False)\n",
      "  (bn1): BatchNorm2d(64, eps=1e-05, momentum=0.1, affine=True, track_running_stats=True)\n",
      "  (relu): ReLU()\n",
      "  (maxpool): MaxPool2d(kernel_size=2, stride=2, padding=0, dilation=1, ceil_mode=False)\n",
      "  (layers): ModuleList(\n",
      "    (DenseBlock_1): DenseBlock(\n",
      "      (layers): ModuleList(\n",
      "        (0): DenseLayer(\n",
      "          (bn1): BatchNorm2d(64, eps=1e-05, momentum=0.1, affine=True, track_running_stats=True)\n",
      "          (conv1): Conv2d(64, 128, kernel_size=(1, 1), stride=(1, 1), bias=False)\n",
      "          (relu): ReLU()\n",
      "          (dropout): Dropout2d(p=0.1, inplace=False)\n",
      "          (bn2): BatchNorm2d(128, eps=1e-05, momentum=0.1, affine=True, track_running_stats=True)\n",
      "          (conv2): Conv2d(128, 32, kernel_size=(3, 3), stride=(1, 1), padding=(1, 1), bias=False)\n",
      "        )\n",
      "        (1): DenseLayer(\n",
      "          (bn1): BatchNorm2d(96, eps=1e-05, momentum=0.1, affine=True, track_running_stats=True)\n",
      "          (conv1): Conv2d(96, 128, kernel_size=(1, 1), stride=(1, 1), bias=False)\n",
      "          (relu): ReLU()\n",
      "          (dropout): Dropout2d(p=0.1, inplace=False)\n",
      "          (bn2): BatchNorm2d(128, eps=1e-05, momentum=0.1, affine=True, track_running_stats=True)\n",
      "          (conv2): Conv2d(128, 32, kernel_size=(3, 3), stride=(1, 1), padding=(1, 1), bias=False)\n",
      "        )\n",
      "        (2): DenseLayer(\n",
      "          (bn1): BatchNorm2d(128, eps=1e-05, momentum=0.1, affine=True, track_running_stats=True)\n",
      "          (conv1): Conv2d(128, 128, kernel_size=(1, 1), stride=(1, 1), bias=False)\n",
      "          (relu): ReLU()\n",
      "          (dropout): Dropout2d(p=0.1, inplace=False)\n",
      "          (bn2): BatchNorm2d(128, eps=1e-05, momentum=0.1, affine=True, track_running_stats=True)\n",
      "          (conv2): Conv2d(128, 32, kernel_size=(3, 3), stride=(1, 1), padding=(1, 1), bias=False)\n",
      "        )\n",
      "        (3): DenseLayer(\n",
      "          (bn1): BatchNorm2d(160, eps=1e-05, momentum=0.1, affine=True, track_running_stats=True)\n",
      "          (conv1): Conv2d(160, 128, kernel_size=(1, 1), stride=(1, 1), bias=False)\n",
      "          (relu): ReLU()\n",
      "          (dropout): Dropout2d(p=0.1, inplace=False)\n",
      "          (bn2): BatchNorm2d(128, eps=1e-05, momentum=0.1, affine=True, track_running_stats=True)\n",
      "          (conv2): Conv2d(128, 32, kernel_size=(3, 3), stride=(1, 1), padding=(1, 1), bias=False)\n",
      "        )\n",
      "        (4): DenseLayer(\n",
      "          (bn1): BatchNorm2d(192, eps=1e-05, momentum=0.1, affine=True, track_running_stats=True)\n",
      "          (conv1): Conv2d(192, 128, kernel_size=(1, 1), stride=(1, 1), bias=False)\n",
      "          (relu): ReLU()\n",
      "          (dropout): Dropout2d(p=0.1, inplace=False)\n",
      "          (bn2): BatchNorm2d(128, eps=1e-05, momentum=0.1, affine=True, track_running_stats=True)\n",
      "          (conv2): Conv2d(128, 32, kernel_size=(3, 3), stride=(1, 1), padding=(1, 1), bias=False)\n",
      "        )\n",
      "        (5): DenseLayer(\n",
      "          (bn1): BatchNorm2d(224, eps=1e-05, momentum=0.1, affine=True, track_running_stats=True)\n",
      "          (conv1): Conv2d(224, 128, kernel_size=(1, 1), stride=(1, 1), bias=False)\n",
      "          (relu): ReLU()\n",
      "          (dropout): Dropout2d(p=0.1, inplace=False)\n",
      "          (bn2): BatchNorm2d(128, eps=1e-05, momentum=0.1, affine=True, track_running_stats=True)\n",
      "          (conv2): Conv2d(128, 32, kernel_size=(3, 3), stride=(1, 1), padding=(1, 1), bias=False)\n",
      "        )\n",
      "      )\n",
      "    )\n",
      "    (TransitionLayer_1): TransitionLayer(\n",
      "      (bn): BatchNorm2d(256, eps=1e-05, momentum=0.1, affine=True, track_running_stats=True)\n",
      "      (conv1): Conv2d(256, 128, kernel_size=(1, 1), stride=(1, 1), bias=False)\n",
      "      (avgpool): AvgPool2d(kernel_size=2, stride=2, padding=0)\n",
      "    )\n",
      "    (DenseBlock_2): DenseBlock(\n",
      "      (layers): ModuleList(\n",
      "        (0): DenseLayer(\n",
      "          (bn1): BatchNorm2d(128, eps=1e-05, momentum=0.1, affine=True, track_running_stats=True)\n",
      "          (conv1): Conv2d(128, 128, kernel_size=(1, 1), stride=(1, 1), bias=False)\n",
      "          (relu): ReLU()\n",
      "          (dropout): Dropout2d(p=0.1, inplace=False)\n",
      "          (bn2): BatchNorm2d(128, eps=1e-05, momentum=0.1, affine=True, track_running_stats=True)\n",
      "          (conv2): Conv2d(128, 32, kernel_size=(3, 3), stride=(1, 1), padding=(1, 1), bias=False)\n",
      "        )\n",
      "        (1): DenseLayer(\n",
      "          (bn1): BatchNorm2d(160, eps=1e-05, momentum=0.1, affine=True, track_running_stats=True)\n",
      "          (conv1): Conv2d(160, 128, kernel_size=(1, 1), stride=(1, 1), bias=False)\n",
      "          (relu): ReLU()\n",
      "          (dropout): Dropout2d(p=0.1, inplace=False)\n",
      "          (bn2): BatchNorm2d(128, eps=1e-05, momentum=0.1, affine=True, track_running_stats=True)\n",
      "          (conv2): Conv2d(128, 32, kernel_size=(3, 3), stride=(1, 1), padding=(1, 1), bias=False)\n",
      "        )\n",
      "        (2): DenseLayer(\n",
      "          (bn1): BatchNorm2d(192, eps=1e-05, momentum=0.1, affine=True, track_running_stats=True)\n",
      "          (conv1): Conv2d(192, 128, kernel_size=(1, 1), stride=(1, 1), bias=False)\n",
      "          (relu): ReLU()\n",
      "          (dropout): Dropout2d(p=0.1, inplace=False)\n",
      "          (bn2): BatchNorm2d(128, eps=1e-05, momentum=0.1, affine=True, track_running_stats=True)\n",
      "          (conv2): Conv2d(128, 32, kernel_size=(3, 3), stride=(1, 1), padding=(1, 1), bias=False)\n",
      "        )\n",
      "        (3): DenseLayer(\n",
      "          (bn1): BatchNorm2d(224, eps=1e-05, momentum=0.1, affine=True, track_running_stats=True)\n",
      "          (conv1): Conv2d(224, 128, kernel_size=(1, 1), stride=(1, 1), bias=False)\n",
      "          (relu): ReLU()\n",
      "          (dropout): Dropout2d(p=0.1, inplace=False)\n",
      "          (bn2): BatchNorm2d(128, eps=1e-05, momentum=0.1, affine=True, track_running_stats=True)\n",
      "          (conv2): Conv2d(128, 32, kernel_size=(3, 3), stride=(1, 1), padding=(1, 1), bias=False)\n",
      "        )\n",
      "        (4): DenseLayer(\n",
      "          (bn1): BatchNorm2d(256, eps=1e-05, momentum=0.1, affine=True, track_running_stats=True)\n",
      "          (conv1): Conv2d(256, 128, kernel_size=(1, 1), stride=(1, 1), bias=False)\n",
      "          (relu): ReLU()\n",
      "          (dropout): Dropout2d(p=0.1, inplace=False)\n",
      "          (bn2): BatchNorm2d(128, eps=1e-05, momentum=0.1, affine=True, track_running_stats=True)\n",
      "          (conv2): Conv2d(128, 32, kernel_size=(3, 3), stride=(1, 1), padding=(1, 1), bias=False)\n",
      "        )\n",
      "        (5): DenseLayer(\n",
      "          (bn1): BatchNorm2d(288, eps=1e-05, momentum=0.1, affine=True, track_running_stats=True)\n",
      "          (conv1): Conv2d(288, 128, kernel_size=(1, 1), stride=(1, 1), bias=False)\n",
      "          (relu): ReLU()\n",
      "          (dropout): Dropout2d(p=0.1, inplace=False)\n",
      "          (bn2): BatchNorm2d(128, eps=1e-05, momentum=0.1, affine=True, track_running_stats=True)\n",
      "          (conv2): Conv2d(128, 32, kernel_size=(3, 3), stride=(1, 1), padding=(1, 1), bias=False)\n",
      "        )\n",
      "        (6): DenseLayer(\n",
      "          (bn1): BatchNorm2d(320, eps=1e-05, momentum=0.1, affine=True, track_running_stats=True)\n",
      "          (conv1): Conv2d(320, 128, kernel_size=(1, 1), stride=(1, 1), bias=False)\n",
      "          (relu): ReLU()\n",
      "          (dropout): Dropout2d(p=0.1, inplace=False)\n",
      "          (bn2): BatchNorm2d(128, eps=1e-05, momentum=0.1, affine=True, track_running_stats=True)\n",
      "          (conv2): Conv2d(128, 32, kernel_size=(3, 3), stride=(1, 1), padding=(1, 1), bias=False)\n",
      "        )\n",
      "        (7): DenseLayer(\n",
      "          (bn1): BatchNorm2d(352, eps=1e-05, momentum=0.1, affine=True, track_running_stats=True)\n",
      "          (conv1): Conv2d(352, 128, kernel_size=(1, 1), stride=(1, 1), bias=False)\n",
      "          (relu): ReLU()\n",
      "          (dropout): Dropout2d(p=0.1, inplace=False)\n",
      "          (bn2): BatchNorm2d(128, eps=1e-05, momentum=0.1, affine=True, track_running_stats=True)\n",
      "          (conv2): Conv2d(128, 32, kernel_size=(3, 3), stride=(1, 1), padding=(1, 1), bias=False)\n",
      "        )\n",
      "        (8): DenseLayer(\n",
      "          (bn1): BatchNorm2d(384, eps=1e-05, momentum=0.1, affine=True, track_running_stats=True)\n",
      "          (conv1): Conv2d(384, 128, kernel_size=(1, 1), stride=(1, 1), bias=False)\n",
      "          (relu): ReLU()\n",
      "          (dropout): Dropout2d(p=0.1, inplace=False)\n",
      "          (bn2): BatchNorm2d(128, eps=1e-05, momentum=0.1, affine=True, track_running_stats=True)\n",
      "          (conv2): Conv2d(128, 32, kernel_size=(3, 3), stride=(1, 1), padding=(1, 1), bias=False)\n",
      "        )\n",
      "        (9): DenseLayer(\n",
      "          (bn1): BatchNorm2d(416, eps=1e-05, momentum=0.1, affine=True, track_running_stats=True)\n",
      "          (conv1): Conv2d(416, 128, kernel_size=(1, 1), stride=(1, 1), bias=False)\n",
      "          (relu): ReLU()\n",
      "          (dropout): Dropout2d(p=0.1, inplace=False)\n",
      "          (bn2): BatchNorm2d(128, eps=1e-05, momentum=0.1, affine=True, track_running_stats=True)\n",
      "          (conv2): Conv2d(128, 32, kernel_size=(3, 3), stride=(1, 1), padding=(1, 1), bias=False)\n",
      "        )\n",
      "        (10): DenseLayer(\n",
      "          (bn1): BatchNorm2d(448, eps=1e-05, momentum=0.1, affine=True, track_running_stats=True)\n",
      "          (conv1): Conv2d(448, 128, kernel_size=(1, 1), stride=(1, 1), bias=False)\n",
      "          (relu): ReLU()\n",
      "          (dropout): Dropout2d(p=0.1, inplace=False)\n",
      "          (bn2): BatchNorm2d(128, eps=1e-05, momentum=0.1, affine=True, track_running_stats=True)\n",
      "          (conv2): Conv2d(128, 32, kernel_size=(3, 3), stride=(1, 1), padding=(1, 1), bias=False)\n",
      "        )\n",
      "        (11): DenseLayer(\n",
      "          (bn1): BatchNorm2d(480, eps=1e-05, momentum=0.1, affine=True, track_running_stats=True)\n",
      "          (conv1): Conv2d(480, 128, kernel_size=(1, 1), stride=(1, 1), bias=False)\n",
      "          (relu): ReLU()\n",
      "          (dropout): Dropout2d(p=0.1, inplace=False)\n",
      "          (bn2): BatchNorm2d(128, eps=1e-05, momentum=0.1, affine=True, track_running_stats=True)\n",
      "          (conv2): Conv2d(128, 32, kernel_size=(3, 3), stride=(1, 1), padding=(1, 1), bias=False)\n",
      "        )\n",
      "      )\n",
      "    )\n",
      "    (TransitionLayer_2): TransitionLayer(\n",
      "      (bn): BatchNorm2d(512, eps=1e-05, momentum=0.1, affine=True, track_running_stats=True)\n",
      "      (conv1): Conv2d(512, 256, kernel_size=(1, 1), stride=(1, 1), bias=False)\n",
      "      (avgpool): AvgPool2d(kernel_size=2, stride=2, padding=0)\n",
      "    )\n",
      "    (DenseBlock_3): DenseBlock(\n",
      "      (layers): ModuleList(\n",
      "        (0): DenseLayer(\n",
      "          (bn1): BatchNorm2d(256, eps=1e-05, momentum=0.1, affine=True, track_running_stats=True)\n",
      "          (conv1): Conv2d(256, 128, kernel_size=(1, 1), stride=(1, 1), bias=False)\n",
      "          (relu): ReLU()\n",
      "          (dropout): Dropout2d(p=0.1, inplace=False)\n",
      "          (bn2): BatchNorm2d(128, eps=1e-05, momentum=0.1, affine=True, track_running_stats=True)\n",
      "          (conv2): Conv2d(128, 32, kernel_size=(3, 3), stride=(1, 1), padding=(1, 1), bias=False)\n",
      "        )\n",
      "        (1): DenseLayer(\n",
      "          (bn1): BatchNorm2d(288, eps=1e-05, momentum=0.1, affine=True, track_running_stats=True)\n",
      "          (conv1): Conv2d(288, 128, kernel_size=(1, 1), stride=(1, 1), bias=False)\n",
      "          (relu): ReLU()\n",
      "          (dropout): Dropout2d(p=0.1, inplace=False)\n",
      "          (bn2): BatchNorm2d(128, eps=1e-05, momentum=0.1, affine=True, track_running_stats=True)\n",
      "          (conv2): Conv2d(128, 32, kernel_size=(3, 3), stride=(1, 1), padding=(1, 1), bias=False)\n",
      "        )\n",
      "        (2): DenseLayer(\n",
      "          (bn1): BatchNorm2d(320, eps=1e-05, momentum=0.1, affine=True, track_running_stats=True)\n",
      "          (conv1): Conv2d(320, 128, kernel_size=(1, 1), stride=(1, 1), bias=False)\n",
      "          (relu): ReLU()\n",
      "          (dropout): Dropout2d(p=0.1, inplace=False)\n",
      "          (bn2): BatchNorm2d(128, eps=1e-05, momentum=0.1, affine=True, track_running_stats=True)\n",
      "          (conv2): Conv2d(128, 32, kernel_size=(3, 3), stride=(1, 1), padding=(1, 1), bias=False)\n",
      "        )\n",
      "        (3): DenseLayer(\n",
      "          (bn1): BatchNorm2d(352, eps=1e-05, momentum=0.1, affine=True, track_running_stats=True)\n",
      "          (conv1): Conv2d(352, 128, kernel_size=(1, 1), stride=(1, 1), bias=False)\n",
      "          (relu): ReLU()\n",
      "          (dropout): Dropout2d(p=0.1, inplace=False)\n",
      "          (bn2): BatchNorm2d(128, eps=1e-05, momentum=0.1, affine=True, track_running_stats=True)\n",
      "          (conv2): Conv2d(128, 32, kernel_size=(3, 3), stride=(1, 1), padding=(1, 1), bias=False)\n",
      "        )\n",
      "        (4): DenseLayer(\n",
      "          (bn1): BatchNorm2d(384, eps=1e-05, momentum=0.1, affine=True, track_running_stats=True)\n",
      "          (conv1): Conv2d(384, 128, kernel_size=(1, 1), stride=(1, 1), bias=False)\n",
      "          (relu): ReLU()\n",
      "          (dropout): Dropout2d(p=0.1, inplace=False)\n",
      "          (bn2): BatchNorm2d(128, eps=1e-05, momentum=0.1, affine=True, track_running_stats=True)\n",
      "          (conv2): Conv2d(128, 32, kernel_size=(3, 3), stride=(1, 1), padding=(1, 1), bias=False)\n",
      "        )\n",
      "        (5): DenseLayer(\n",
      "          (bn1): BatchNorm2d(416, eps=1e-05, momentum=0.1, affine=True, track_running_stats=True)\n",
      "          (conv1): Conv2d(416, 128, kernel_size=(1, 1), stride=(1, 1), bias=False)\n",
      "          (relu): ReLU()\n",
      "          (dropout): Dropout2d(p=0.1, inplace=False)\n",
      "          (bn2): BatchNorm2d(128, eps=1e-05, momentum=0.1, affine=True, track_running_stats=True)\n",
      "          (conv2): Conv2d(128, 32, kernel_size=(3, 3), stride=(1, 1), padding=(1, 1), bias=False)\n",
      "        )\n",
      "        (6): DenseLayer(\n",
      "          (bn1): BatchNorm2d(448, eps=1e-05, momentum=0.1, affine=True, track_running_stats=True)\n",
      "          (conv1): Conv2d(448, 128, kernel_size=(1, 1), stride=(1, 1), bias=False)\n",
      "          (relu): ReLU()\n",
      "          (dropout): Dropout2d(p=0.1, inplace=False)\n",
      "          (bn2): BatchNorm2d(128, eps=1e-05, momentum=0.1, affine=True, track_running_stats=True)\n",
      "          (conv2): Conv2d(128, 32, kernel_size=(3, 3), stride=(1, 1), padding=(1, 1), bias=False)\n",
      "        )\n",
      "        (7): DenseLayer(\n",
      "          (bn1): BatchNorm2d(480, eps=1e-05, momentum=0.1, affine=True, track_running_stats=True)\n",
      "          (conv1): Conv2d(480, 128, kernel_size=(1, 1), stride=(1, 1), bias=False)\n",
      "          (relu): ReLU()\n",
      "          (dropout): Dropout2d(p=0.1, inplace=False)\n",
      "          (bn2): BatchNorm2d(128, eps=1e-05, momentum=0.1, affine=True, track_running_stats=True)\n",
      "          (conv2): Conv2d(128, 32, kernel_size=(3, 3), stride=(1, 1), padding=(1, 1), bias=False)\n",
      "        )\n",
      "        (8): DenseLayer(\n",
      "          (bn1): BatchNorm2d(512, eps=1e-05, momentum=0.1, affine=True, track_running_stats=True)\n",
      "          (conv1): Conv2d(512, 128, kernel_size=(1, 1), stride=(1, 1), bias=False)\n",
      "          (relu): ReLU()\n",
      "          (dropout): Dropout2d(p=0.1, inplace=False)\n",
      "          (bn2): BatchNorm2d(128, eps=1e-05, momentum=0.1, affine=True, track_running_stats=True)\n",
      "          (conv2): Conv2d(128, 32, kernel_size=(3, 3), stride=(1, 1), padding=(1, 1), bias=False)\n",
      "        )\n",
      "        (9): DenseLayer(\n",
      "          (bn1): BatchNorm2d(544, eps=1e-05, momentum=0.1, affine=True, track_running_stats=True)\n",
      "          (conv1): Conv2d(544, 128, kernel_size=(1, 1), stride=(1, 1), bias=False)\n",
      "          (relu): ReLU()\n",
      "          (dropout): Dropout2d(p=0.1, inplace=False)\n",
      "          (bn2): BatchNorm2d(128, eps=1e-05, momentum=0.1, affine=True, track_running_stats=True)\n",
      "          (conv2): Conv2d(128, 32, kernel_size=(3, 3), stride=(1, 1), padding=(1, 1), bias=False)\n",
      "        )\n",
      "        (10): DenseLayer(\n",
      "          (bn1): BatchNorm2d(576, eps=1e-05, momentum=0.1, affine=True, track_running_stats=True)\n",
      "          (conv1): Conv2d(576, 128, kernel_size=(1, 1), stride=(1, 1), bias=False)\n",
      "          (relu): ReLU()\n",
      "          (dropout): Dropout2d(p=0.1, inplace=False)\n",
      "          (bn2): BatchNorm2d(128, eps=1e-05, momentum=0.1, affine=True, track_running_stats=True)\n",
      "          (conv2): Conv2d(128, 32, kernel_size=(3, 3), stride=(1, 1), padding=(1, 1), bias=False)\n",
      "        )\n",
      "        (11): DenseLayer(\n",
      "          (bn1): BatchNorm2d(608, eps=1e-05, momentum=0.1, affine=True, track_running_stats=True)\n",
      "          (conv1): Conv2d(608, 128, kernel_size=(1, 1), stride=(1, 1), bias=False)\n",
      "          (relu): ReLU()\n",
      "          (dropout): Dropout2d(p=0.1, inplace=False)\n",
      "          (bn2): BatchNorm2d(128, eps=1e-05, momentum=0.1, affine=True, track_running_stats=True)\n",
      "          (conv2): Conv2d(128, 32, kernel_size=(3, 3), stride=(1, 1), padding=(1, 1), bias=False)\n",
      "        )\n",
      "        (12): DenseLayer(\n",
      "          (bn1): BatchNorm2d(640, eps=1e-05, momentum=0.1, affine=True, track_running_stats=True)\n",
      "          (conv1): Conv2d(640, 128, kernel_size=(1, 1), stride=(1, 1), bias=False)\n",
      "          (relu): ReLU()\n",
      "          (dropout): Dropout2d(p=0.1, inplace=False)\n",
      "          (bn2): BatchNorm2d(128, eps=1e-05, momentum=0.1, affine=True, track_running_stats=True)\n",
      "          (conv2): Conv2d(128, 32, kernel_size=(3, 3), stride=(1, 1), padding=(1, 1), bias=False)\n",
      "        )\n",
      "        (13): DenseLayer(\n",
      "          (bn1): BatchNorm2d(672, eps=1e-05, momentum=0.1, affine=True, track_running_stats=True)\n",
      "          (conv1): Conv2d(672, 128, kernel_size=(1, 1), stride=(1, 1), bias=False)\n",
      "          (relu): ReLU()\n",
      "          (dropout): Dropout2d(p=0.1, inplace=False)\n",
      "          (bn2): BatchNorm2d(128, eps=1e-05, momentum=0.1, affine=True, track_running_stats=True)\n",
      "          (conv2): Conv2d(128, 32, kernel_size=(3, 3), stride=(1, 1), padding=(1, 1), bias=False)\n",
      "        )\n",
      "        (14): DenseLayer(\n",
      "          (bn1): BatchNorm2d(704, eps=1e-05, momentum=0.1, affine=True, track_running_stats=True)\n",
      "          (conv1): Conv2d(704, 128, kernel_size=(1, 1), stride=(1, 1), bias=False)\n",
      "          (relu): ReLU()\n",
      "          (dropout): Dropout2d(p=0.1, inplace=False)\n",
      "          (bn2): BatchNorm2d(128, eps=1e-05, momentum=0.1, affine=True, track_running_stats=True)\n",
      "          (conv2): Conv2d(128, 32, kernel_size=(3, 3), stride=(1, 1), padding=(1, 1), bias=False)\n",
      "        )\n",
      "        (15): DenseLayer(\n",
      "          (bn1): BatchNorm2d(736, eps=1e-05, momentum=0.1, affine=True, track_running_stats=True)\n",
      "          (conv1): Conv2d(736, 128, kernel_size=(1, 1), stride=(1, 1), bias=False)\n",
      "          (relu): ReLU()\n",
      "          (dropout): Dropout2d(p=0.1, inplace=False)\n",
      "          (bn2): BatchNorm2d(128, eps=1e-05, momentum=0.1, affine=True, track_running_stats=True)\n",
      "          (conv2): Conv2d(128, 32, kernel_size=(3, 3), stride=(1, 1), padding=(1, 1), bias=False)\n",
      "        )\n",
      "        (16): DenseLayer(\n",
      "          (bn1): BatchNorm2d(768, eps=1e-05, momentum=0.1, affine=True, track_running_stats=True)\n",
      "          (conv1): Conv2d(768, 128, kernel_size=(1, 1), stride=(1, 1), bias=False)\n",
      "          (relu): ReLU()\n",
      "          (dropout): Dropout2d(p=0.1, inplace=False)\n",
      "          (bn2): BatchNorm2d(128, eps=1e-05, momentum=0.1, affine=True, track_running_stats=True)\n",
      "          (conv2): Conv2d(128, 32, kernel_size=(3, 3), stride=(1, 1), padding=(1, 1), bias=False)\n",
      "        )\n",
      "        (17): DenseLayer(\n",
      "          (bn1): BatchNorm2d(800, eps=1e-05, momentum=0.1, affine=True, track_running_stats=True)\n",
      "          (conv1): Conv2d(800, 128, kernel_size=(1, 1), stride=(1, 1), bias=False)\n",
      "          (relu): ReLU()\n",
      "          (dropout): Dropout2d(p=0.1, inplace=False)\n",
      "          (bn2): BatchNorm2d(128, eps=1e-05, momentum=0.1, affine=True, track_running_stats=True)\n",
      "          (conv2): Conv2d(128, 32, kernel_size=(3, 3), stride=(1, 1), padding=(1, 1), bias=False)\n",
      "        )\n",
      "        (18): DenseLayer(\n",
      "          (bn1): BatchNorm2d(832, eps=1e-05, momentum=0.1, affine=True, track_running_stats=True)\n",
      "          (conv1): Conv2d(832, 128, kernel_size=(1, 1), stride=(1, 1), bias=False)\n",
      "          (relu): ReLU()\n",
      "          (dropout): Dropout2d(p=0.1, inplace=False)\n",
      "          (bn2): BatchNorm2d(128, eps=1e-05, momentum=0.1, affine=True, track_running_stats=True)\n",
      "          (conv2): Conv2d(128, 32, kernel_size=(3, 3), stride=(1, 1), padding=(1, 1), bias=False)\n",
      "        )\n",
      "        (19): DenseLayer(\n",
      "          (bn1): BatchNorm2d(864, eps=1e-05, momentum=0.1, affine=True, track_running_stats=True)\n",
      "          (conv1): Conv2d(864, 128, kernel_size=(1, 1), stride=(1, 1), bias=False)\n",
      "          (relu): ReLU()\n",
      "          (dropout): Dropout2d(p=0.1, inplace=False)\n",
      "          (bn2): BatchNorm2d(128, eps=1e-05, momentum=0.1, affine=True, track_running_stats=True)\n",
      "          (conv2): Conv2d(128, 32, kernel_size=(3, 3), stride=(1, 1), padding=(1, 1), bias=False)\n",
      "        )\n",
      "        (20): DenseLayer(\n",
      "          (bn1): BatchNorm2d(896, eps=1e-05, momentum=0.1, affine=True, track_running_stats=True)\n",
      "          (conv1): Conv2d(896, 128, kernel_size=(1, 1), stride=(1, 1), bias=False)\n",
      "          (relu): ReLU()\n",
      "          (dropout): Dropout2d(p=0.1, inplace=False)\n",
      "          (bn2): BatchNorm2d(128, eps=1e-05, momentum=0.1, affine=True, track_running_stats=True)\n",
      "          (conv2): Conv2d(128, 32, kernel_size=(3, 3), stride=(1, 1), padding=(1, 1), bias=False)\n",
      "        )\n",
      "        (21): DenseLayer(\n",
      "          (bn1): BatchNorm2d(928, eps=1e-05, momentum=0.1, affine=True, track_running_stats=True)\n",
      "          (conv1): Conv2d(928, 128, kernel_size=(1, 1), stride=(1, 1), bias=False)\n",
      "          (relu): ReLU()\n",
      "          (dropout): Dropout2d(p=0.1, inplace=False)\n",
      "          (bn2): BatchNorm2d(128, eps=1e-05, momentum=0.1, affine=True, track_running_stats=True)\n",
      "          (conv2): Conv2d(128, 32, kernel_size=(3, 3), stride=(1, 1), padding=(1, 1), bias=False)\n",
      "        )\n",
      "        (22): DenseLayer(\n",
      "          (bn1): BatchNorm2d(960, eps=1e-05, momentum=0.1, affine=True, track_running_stats=True)\n",
      "          (conv1): Conv2d(960, 128, kernel_size=(1, 1), stride=(1, 1), bias=False)\n",
      "          (relu): ReLU()\n",
      "          (dropout): Dropout2d(p=0.1, inplace=False)\n",
      "          (bn2): BatchNorm2d(128, eps=1e-05, momentum=0.1, affine=True, track_running_stats=True)\n",
      "          (conv2): Conv2d(128, 32, kernel_size=(3, 3), stride=(1, 1), padding=(1, 1), bias=False)\n",
      "        )\n",
      "        (23): DenseLayer(\n",
      "          (bn1): BatchNorm2d(992, eps=1e-05, momentum=0.1, affine=True, track_running_stats=True)\n",
      "          (conv1): Conv2d(992, 128, kernel_size=(1, 1), stride=(1, 1), bias=False)\n",
      "          (relu): ReLU()\n",
      "          (dropout): Dropout2d(p=0.1, inplace=False)\n",
      "          (bn2): BatchNorm2d(128, eps=1e-05, momentum=0.1, affine=True, track_running_stats=True)\n",
      "          (conv2): Conv2d(128, 32, kernel_size=(3, 3), stride=(1, 1), padding=(1, 1), bias=False)\n",
      "        )\n",
      "      )\n",
      "    )\n",
      "    (TransitionLayer_3): TransitionLayer(\n",
      "      (bn): BatchNorm2d(1024, eps=1e-05, momentum=0.1, affine=True, track_running_stats=True)\n",
      "      (conv1): Conv2d(1024, 512, kernel_size=(1, 1), stride=(1, 1), bias=False)\n",
      "      (avgpool): AvgPool2d(kernel_size=2, stride=2, padding=0)\n",
      "    )\n",
      "    (DenseBlock_4): DenseBlock(\n",
      "      (layers): ModuleList(\n",
      "        (0): DenseLayer(\n",
      "          (bn1): BatchNorm2d(512, eps=1e-05, momentum=0.1, affine=True, track_running_stats=True)\n",
      "          (conv1): Conv2d(512, 128, kernel_size=(1, 1), stride=(1, 1), bias=False)\n",
      "          (relu): ReLU()\n",
      "          (dropout): Dropout2d(p=0.1, inplace=False)\n",
      "          (bn2): BatchNorm2d(128, eps=1e-05, momentum=0.1, affine=True, track_running_stats=True)\n",
      "          (conv2): Conv2d(128, 32, kernel_size=(3, 3), stride=(1, 1), padding=(1, 1), bias=False)\n",
      "        )\n",
      "        (1): DenseLayer(\n",
      "          (bn1): BatchNorm2d(544, eps=1e-05, momentum=0.1, affine=True, track_running_stats=True)\n",
      "          (conv1): Conv2d(544, 128, kernel_size=(1, 1), stride=(1, 1), bias=False)\n",
      "          (relu): ReLU()\n",
      "          (dropout): Dropout2d(p=0.1, inplace=False)\n",
      "          (bn2): BatchNorm2d(128, eps=1e-05, momentum=0.1, affine=True, track_running_stats=True)\n",
      "          (conv2): Conv2d(128, 32, kernel_size=(3, 3), stride=(1, 1), padding=(1, 1), bias=False)\n",
      "        )\n",
      "        (2): DenseLayer(\n",
      "          (bn1): BatchNorm2d(576, eps=1e-05, momentum=0.1, affine=True, track_running_stats=True)\n",
      "          (conv1): Conv2d(576, 128, kernel_size=(1, 1), stride=(1, 1), bias=False)\n",
      "          (relu): ReLU()\n",
      "          (dropout): Dropout2d(p=0.1, inplace=False)\n",
      "          (bn2): BatchNorm2d(128, eps=1e-05, momentum=0.1, affine=True, track_running_stats=True)\n",
      "          (conv2): Conv2d(128, 32, kernel_size=(3, 3), stride=(1, 1), padding=(1, 1), bias=False)\n",
      "        )\n",
      "        (3): DenseLayer(\n",
      "          (bn1): BatchNorm2d(608, eps=1e-05, momentum=0.1, affine=True, track_running_stats=True)\n",
      "          (conv1): Conv2d(608, 128, kernel_size=(1, 1), stride=(1, 1), bias=False)\n",
      "          (relu): ReLU()\n",
      "          (dropout): Dropout2d(p=0.1, inplace=False)\n",
      "          (bn2): BatchNorm2d(128, eps=1e-05, momentum=0.1, affine=True, track_running_stats=True)\n",
      "          (conv2): Conv2d(128, 32, kernel_size=(3, 3), stride=(1, 1), padding=(1, 1), bias=False)\n",
      "        )\n",
      "        (4): DenseLayer(\n",
      "          (bn1): BatchNorm2d(640, eps=1e-05, momentum=0.1, affine=True, track_running_stats=True)\n",
      "          (conv1): Conv2d(640, 128, kernel_size=(1, 1), stride=(1, 1), bias=False)\n",
      "          (relu): ReLU()\n",
      "          (dropout): Dropout2d(p=0.1, inplace=False)\n",
      "          (bn2): BatchNorm2d(128, eps=1e-05, momentum=0.1, affine=True, track_running_stats=True)\n",
      "          (conv2): Conv2d(128, 32, kernel_size=(3, 3), stride=(1, 1), padding=(1, 1), bias=False)\n",
      "        )\n",
      "        (5): DenseLayer(\n",
      "          (bn1): BatchNorm2d(672, eps=1e-05, momentum=0.1, affine=True, track_running_stats=True)\n",
      "          (conv1): Conv2d(672, 128, kernel_size=(1, 1), stride=(1, 1), bias=False)\n",
      "          (relu): ReLU()\n",
      "          (dropout): Dropout2d(p=0.1, inplace=False)\n",
      "          (bn2): BatchNorm2d(128, eps=1e-05, momentum=0.1, affine=True, track_running_stats=True)\n",
      "          (conv2): Conv2d(128, 32, kernel_size=(3, 3), stride=(1, 1), padding=(1, 1), bias=False)\n",
      "        )\n",
      "        (6): DenseLayer(\n",
      "          (bn1): BatchNorm2d(704, eps=1e-05, momentum=0.1, affine=True, track_running_stats=True)\n",
      "          (conv1): Conv2d(704, 128, kernel_size=(1, 1), stride=(1, 1), bias=False)\n",
      "          (relu): ReLU()\n",
      "          (dropout): Dropout2d(p=0.1, inplace=False)\n",
      "          (bn2): BatchNorm2d(128, eps=1e-05, momentum=0.1, affine=True, track_running_stats=True)\n",
      "          (conv2): Conv2d(128, 32, kernel_size=(3, 3), stride=(1, 1), padding=(1, 1), bias=False)\n",
      "        )\n",
      "        (7): DenseLayer(\n",
      "          (bn1): BatchNorm2d(736, eps=1e-05, momentum=0.1, affine=True, track_running_stats=True)\n",
      "          (conv1): Conv2d(736, 128, kernel_size=(1, 1), stride=(1, 1), bias=False)\n",
      "          (relu): ReLU()\n",
      "          (dropout): Dropout2d(p=0.1, inplace=False)\n",
      "          (bn2): BatchNorm2d(128, eps=1e-05, momentum=0.1, affine=True, track_running_stats=True)\n",
      "          (conv2): Conv2d(128, 32, kernel_size=(3, 3), stride=(1, 1), padding=(1, 1), bias=False)\n",
      "        )\n",
      "        (8): DenseLayer(\n",
      "          (bn1): BatchNorm2d(768, eps=1e-05, momentum=0.1, affine=True, track_running_stats=True)\n",
      "          (conv1): Conv2d(768, 128, kernel_size=(1, 1), stride=(1, 1), bias=False)\n",
      "          (relu): ReLU()\n",
      "          (dropout): Dropout2d(p=0.1, inplace=False)\n",
      "          (bn2): BatchNorm2d(128, eps=1e-05, momentum=0.1, affine=True, track_running_stats=True)\n",
      "          (conv2): Conv2d(128, 32, kernel_size=(3, 3), stride=(1, 1), padding=(1, 1), bias=False)\n",
      "        )\n",
      "        (9): DenseLayer(\n",
      "          (bn1): BatchNorm2d(800, eps=1e-05, momentum=0.1, affine=True, track_running_stats=True)\n",
      "          (conv1): Conv2d(800, 128, kernel_size=(1, 1), stride=(1, 1), bias=False)\n",
      "          (relu): ReLU()\n",
      "          (dropout): Dropout2d(p=0.1, inplace=False)\n",
      "          (bn2): BatchNorm2d(128, eps=1e-05, momentum=0.1, affine=True, track_running_stats=True)\n",
      "          (conv2): Conv2d(128, 32, kernel_size=(3, 3), stride=(1, 1), padding=(1, 1), bias=False)\n",
      "        )\n",
      "        (10): DenseLayer(\n",
      "          (bn1): BatchNorm2d(832, eps=1e-05, momentum=0.1, affine=True, track_running_stats=True)\n",
      "          (conv1): Conv2d(832, 128, kernel_size=(1, 1), stride=(1, 1), bias=False)\n",
      "          (relu): ReLU()\n",
      "          (dropout): Dropout2d(p=0.1, inplace=False)\n",
      "          (bn2): BatchNorm2d(128, eps=1e-05, momentum=0.1, affine=True, track_running_stats=True)\n",
      "          (conv2): Conv2d(128, 32, kernel_size=(3, 3), stride=(1, 1), padding=(1, 1), bias=False)\n",
      "        )\n",
      "        (11): DenseLayer(\n",
      "          (bn1): BatchNorm2d(864, eps=1e-05, momentum=0.1, affine=True, track_running_stats=True)\n",
      "          (conv1): Conv2d(864, 128, kernel_size=(1, 1), stride=(1, 1), bias=False)\n",
      "          (relu): ReLU()\n",
      "          (dropout): Dropout2d(p=0.1, inplace=False)\n",
      "          (bn2): BatchNorm2d(128, eps=1e-05, momentum=0.1, affine=True, track_running_stats=True)\n",
      "          (conv2): Conv2d(128, 32, kernel_size=(3, 3), stride=(1, 1), padding=(1, 1), bias=False)\n",
      "        )\n",
      "        (12): DenseLayer(\n",
      "          (bn1): BatchNorm2d(896, eps=1e-05, momentum=0.1, affine=True, track_running_stats=True)\n",
      "          (conv1): Conv2d(896, 128, kernel_size=(1, 1), stride=(1, 1), bias=False)\n",
      "          (relu): ReLU()\n",
      "          (dropout): Dropout2d(p=0.1, inplace=False)\n",
      "          (bn2): BatchNorm2d(128, eps=1e-05, momentum=0.1, affine=True, track_running_stats=True)\n",
      "          (conv2): Conv2d(128, 32, kernel_size=(3, 3), stride=(1, 1), padding=(1, 1), bias=False)\n",
      "        )\n",
      "        (13): DenseLayer(\n",
      "          (bn1): BatchNorm2d(928, eps=1e-05, momentum=0.1, affine=True, track_running_stats=True)\n",
      "          (conv1): Conv2d(928, 128, kernel_size=(1, 1), stride=(1, 1), bias=False)\n",
      "          (relu): ReLU()\n",
      "          (dropout): Dropout2d(p=0.1, inplace=False)\n",
      "          (bn2): BatchNorm2d(128, eps=1e-05, momentum=0.1, affine=True, track_running_stats=True)\n",
      "          (conv2): Conv2d(128, 32, kernel_size=(3, 3), stride=(1, 1), padding=(1, 1), bias=False)\n",
      "        )\n",
      "        (14): DenseLayer(\n",
      "          (bn1): BatchNorm2d(960, eps=1e-05, momentum=0.1, affine=True, track_running_stats=True)\n",
      "          (conv1): Conv2d(960, 128, kernel_size=(1, 1), stride=(1, 1), bias=False)\n",
      "          (relu): ReLU()\n",
      "          (dropout): Dropout2d(p=0.1, inplace=False)\n",
      "          (bn2): BatchNorm2d(128, eps=1e-05, momentum=0.1, affine=True, track_running_stats=True)\n",
      "          (conv2): Conv2d(128, 32, kernel_size=(3, 3), stride=(1, 1), padding=(1, 1), bias=False)\n",
      "        )\n",
      "        (15): DenseLayer(\n",
      "          (bn1): BatchNorm2d(992, eps=1e-05, momentum=0.1, affine=True, track_running_stats=True)\n",
      "          (conv1): Conv2d(992, 128, kernel_size=(1, 1), stride=(1, 1), bias=False)\n",
      "          (relu): ReLU()\n",
      "          (dropout): Dropout2d(p=0.1, inplace=False)\n",
      "          (bn2): BatchNorm2d(128, eps=1e-05, momentum=0.1, affine=True, track_running_stats=True)\n",
      "          (conv2): Conv2d(128, 32, kernel_size=(3, 3), stride=(1, 1), padding=(1, 1), bias=False)\n",
      "        )\n",
      "      )\n",
      "    )\n",
      "  )\n",
      "  (bn2): BatchNorm2d(1024, eps=1e-05, momentum=0.1, affine=True, track_running_stats=True)\n",
      "  (avgpool): AdaptiveAvgPool2d(output_size=1)\n",
      "  (fc): Linear(in_features=1024, out_features=10, bias=True)\n",
      ")\n"
     ]
    }
   ],
   "source": [
    "# Pint the Model\n",
    "print(model)"
   ]
  },
  {
   "cell_type": "markdown",
   "id": "49916d28",
   "metadata": {},
   "source": [
    "## Training and Evaluation"
   ]
  },
  {
   "cell_type": "code",
   "execution_count": 14,
   "id": "54fc57c3",
   "metadata": {},
   "outputs": [],
   "source": [
…
